net.params (torch, 445543 bytes, 8 tensors)

fc1.weight f4 [400, 50]
000000 12 32 10 be 7d 34 0c be fd 00 2c be b1 03 7f 3d
       -0.140816 -0.13691898 -0.16797252 0.06225938
000010 96 34 25 be b4 bc 2b be cc 91 e8 bd 48 0d 01 3e
       -0.16133341 -0.16771203 -0.113559335 0.12602723
000020 d4 df 93 bc c3 df 04 3e 83 e6 15 3d 0b e9 10 bc
       -0.018051066 0.12975983 0.036596786 -0.008844624
000030 50 d5 19 3e 20 25 75 bd c9 ba 33 bd 22 54 ba bc
       0.15022779 -0.05984986 -0.043879304 -0.022745196
000040 69 15 9e bb 4b 3c 24 bd 60 b8 d5 3d 36 76 bb bd
       -0.0048243296 -0.040096562 0.10435557 -0.09153406
000050 ae fb ee bd ae 64 36 bd b6 fe 13 3e 44 f1 35 3c
       -0.11669098 -0.04452961 0.14452633 0.0111048855
000060 a9 6a 05 3d 00 09 67 bd e7 51 9f bc 5c 2d 13 3b
       0.032572422 -0.056405067 -0.019448234 0.0022457456
000070 46 6e 69 3d 88 a0 0b 3d 45 23 0c 3c 50 21 d3 bd
       0.05698993 0.03408864 0.008553331 -0.10309088
000080 7c b4 7a bd 5c 44 17 3e bb 29 c9 bd 04 30 2e be
       -0.06120728 0.14772171 -0.098224126 -0.17010504
000090 3c 92 91 bc fd 80 ce 3c 48 62 bc bd eb b3 2a 3e
       -0.017769925 0.02520799 -0.09198433 0.16670196
0000a0 a3 e1 97 3d ad 6e 04 be ce bb 2f 3e aa 8f 8f 3c
       0.07416084 -0.12932844 0.17161486 0.017524559
0000b0 97 6e 94 3d cf d7 02 3d 8c 1a fd 3d 98 2f 0e 3e
       0.07247656 0.031944092 0.12358579 0.13885343
0000c0 e4 b8 a0 3d f0 98 17 3a 19 d6 6c bb e6 dd 80 3d
       0.07847765 0.00057829823 -0.0036138354 0.06292324
0000d0 30 43 fd bd de f6 b3 bb 77 dd 27 bd 71 26 e1 bd
       -0.123663306 -0.0054920753 -0.04098269 -0.1099366
0000e0 7c d9 d2 3d 36 2e 9d 3d 70 6f 90 bd 6e 98 09 bc
       0.10295388 0.0767483 -0.07052505 -0.0083981585
0000f0 8c b1 0c bd e7 c7 8b bd 7c 1f 95 3d 1d 1a b3 bd
       -0.03434901 -0.06825238 0.07281396 -0.08745215
000100 dc d5 94 bc b2 58 06 bd d6 74 da bd 18 1d a5 bd
       -0.018168382 -0.03279943 -0.10666816 -0.0806219
000110 f0 dc 4f 3d 87 8d 0c bd 63 2d 31 3d 56 a5 82 3d
       0.05074781 -0.03431466 0.043256175 0.063791916
000120 47 fb c9 bd c1 03 ae bd 0f 89 00 3c ad 51 b6 3b
       -0.098623805 -0.0849681 0.007845177 0.0055639357
000130 06 58 7b bc 3c c5 f4 bd 94 6d 06 3e ac 60 10 be
       -0.015340811 -0.11951682 0.13127738 -0.14099377
000140 27 d5 d3 3d d2 25 f9 bd 88 0c 13 3e 02 8e 6c 3d
       0.1034339 -0.12165417 0.14360249 0.057752617
000150 56 06 22 3c b0 2e 40 bd e6 de b1 b9 c8 2f 89 bb
       0.009889206 -0.046919525 -0.00033926143 -0.004186604
000160 f6 06 d1 3c 1c bc fc 3d bd f4 80 3d a7 21 f9 bd
       0.025516015 0.123405665 0.0629668 -0.12164622
000170 09 07 1c 3b 3f 1a 0c 3e 53 e0 a3 3d 25 11 33 3d
       0.0023807904 0.13681887 0.08001771 0.043717522
000180 9d eb 78 bd c4 8f e6 bc a5 97 ac 3d 9c 2d f3 3c
       -0.060771573 -0.028144725 0.084273614 0.029684834
000190 88 31 09 bd 3f ed 5e bd 49 3c 10 be 89 0a 1b bd
       -0.033494502 -0.054425474 -0.14085497 -0.037851844
0001a0 d4 80 cd 3d c9 54 24 be 57 ce 0a 3c 59 1e 04 bc
       0.10034338 -0.16047968 0.008472047 -0.008063876
0001b0 6f b7 a1 bd 4e 05 0d be d7 36 c5 3d 7e b3 76 3c
       -0.07896315 -0.13771555 0.096296005 0.015057443
0001c0 4d 37 01 be 1b da a8 bc 40 45 b5 3c 22 c4 e9 bd
       -0.12618752 -0.020611813 0.022127748 -0.114143625
0001d0 29 7d fb bd c1 7b bd bd 1f 64 f0 bd a5 8b e2 bd
       -0.12279732 -0.0925212 -0.117378466 -0.11061791
0001e0 a0 bd c7 bd cd 7a e6 3d 89 cf dc 3d b9 60 0c 3d
       -0.09752965 0.11253891 0.10781772 0.03427193
0001f0 78 67 f2 3d b5 e7 a1 bd ea 94 97 3d 12 58 0d be
       0.11836141 -0.07905523 0.0740145 -0.13803127
000200 b8 56 75 bd fa d7 a7 3d 91 14 f8 3d 78 3c 18 be
       -0.059897155 0.08195491 0.12113298 -0.14866817
000210 6e dc cc bc e6 ee cc 3d 70 07 60 3c a0 c3 0b be
       -0.025007453 0.10006504 0.013673648 -0.13648844
000220 cb 5e 3e 3d 02 a4 00 3d 43 80 fc bd d1 03 5c 3d
       0.04647712 0.03140641 -0.123291515 0.053714577
000230 f3 67 24 bd d3 83 a7 bd 9a 0d 89 bc 0d 68 28 3d
       -0.040138196 -0.0817944 -0.016730119 0.041114856
000240 2f 52 24 bd bf 0f d1 bc 3e 7b 13 3d 5e c3 a8 bd
       -0.04011744 -0.025520204 0.036006205 -0.08240388
000250 da 7c 0a 3e 31 c6 61 bc a5 67 40 3e df 37 35 bd
       0.1352419 -0.013780163 0.18789537 -0.044242736
000260 0e af 10 3d df 75 89 bd fb d9 26 3e 55 22 8f 3c
       0.035323195 -0.06711935 0.1629409 0.017472425
000270 0f 51 b5 bd 12 14 7b 3d 2c db cb 3b f2 f4 1a be
       -0.08853351 0.061298437 0.0062211957 -0.15132502
000280 d4 0c 06 be d8 f0 05 bd a9 69 08 be 35 6f 21 3d
       -0.13090831 -0.03270039 -0.13321556 0.039412696
000290 ad 8f 78 3d 5f 49 eb 3d 2a ae f4 3d 3d f2 21 3c
       0.060683895 0.11488604 0.11947282 0.009884414
0002a0 a1 31 38 be af 94 dd bd 84 95 f4 bd 2f 70 98 3c
       -0.17987682 -0.10819375 -0.1194258 0.01860818
0002b0 80 60 d9 3d 3a 3e 74 bd 72 37 dd bd a9 e1 8e 3d
       0.10614109 -0.059629656 -0.10801591 0.06976635
0002c0 f0 83 ad 3d 8a a8 88 3b 5a d3 fc bd f0 0c 15 be
       0.08472431 0.004170482 -0.123449996 -0.14555717
0002d0 71 51 3e bc 42 9e d3 3d 06 a5 6b 3d c4 d4 22 3e
       -0.011616097 0.1033292 0.057530425 0.15901476
0002e0 97 bd c2 bb 79 a3 d8 3d 33 80 d3 3d 3b 96 04 3c
       -0.005943011 0.10578055 0.103271864 0.008092458
0002f0 f3 0c 80 3d 50 75 c9 bd 2c d3 84 bd a8 56 02 bd
       0.0625247 -0.09836829 -0.0648559 -0.031820923
000300 0e a7 2c 3e 68 0f 0e 3d 45 7d b1 bd c8 7d a7 bd
       0.16860601 0.03468266 -0.086664714 -0.08178288
000310 e2 ee 84 bd 5c 5e 9f 3d d8 66 13 3d 65 30 3f 3d
       -0.06490876 0.077816695 0.03598675 0.046677012
000320 5a 6d 88 bd e7 1d 4f bd f2 13 a9 3d 59 c5 2d bd
       -0.06661482 -0.050565626 0.082557574 -0.042424534
000330 39 35 a6 3d a6 c0 51 3d 48 c8 b8 3c 42 9f 49 3d
       0.0811562 0.051209114 0.022556439 0.049224146
000340 ed e5 e0 3c 02 b2 ee bd ba 4b 45 bd a3 47 7f 3d
       0.027453387 -0.11655046 -0.04816792 0.062324177
000350 49 6c 2f bb d7 79 09 be 85 01 95 bd 98 95 11 be
       -0.0026767424 -0.13425384 -0.072756805 -0.14217222
000360 1e 9d ee 3d 74 a3 7b 3d 6d 06 f2 3d d5 d6 c9 3d
       0.116510615 0.061435178 0.11817632 0.09855429
000370 72 48 15 3e b2 a4 8e bd ac d2 c0 3d 12 c2 bd bd
       0.14578417 -0.06965007 0.094151825 -0.092655316
000380 ce 50 47 be 40 89 f7 3d e1 b1 8d bd 9c cb 2e 3e
       -0.19464418 0.12086725 -0.06918693 0.17069858
000390 ab 0b 3e 3d 70 c4 0d bd 88 6e cf bd 55 65 28 be
       0.046397846 -0.034611166 -0.10128504 -0.16444905
0003a0 46 76 d5 bd 0b 8d a8 3d 18 d3 b6 bd 98 66 39 be
       -0.104229495 0.08230027 -0.08926982 -0.18105543
0003b0 f5 60 bb 3c 2d 32 56 3e 2d 70 1e be ce de d2 3d
       0.022873381 0.20917578 -0.15472479 0.10296403
0003c0 c9 1b fb 3d 74 74 05 3d ce 1e cb 3d aa df 96 3b
       0.12261159 0.03258176 0.09917985 0.0046042996
0003d0 12 fd e2 3c 36 b8 46 bd 73 bd 88 3d 15 02 07 3e
       0.027708564 -0.04851552 0.066767596 0.13184388
0003e0 39 f9 3e be 41 98 10 bc 20 89 88 3c 17 03 fc 3d
       -0.18649758 -0.008825363 0.016666949 0.12305277
0003f0 ce ee b9 bd ae 5e 63 bd a5 bf 06 3d 3c 43 33 3d
       -0.090787515 -0.055510215 0.03289761 0.04376529

fc1.bias f4 [400]
000000 9b a3 b6 3d cc 71 76 bd c2 b3 39 bd c1 ed a0 bd
       0.08917924 -0.06016712 -0.045337446 -0.07857848
000010 d9 4f ab bd 7f 34 f9 3d c0 66 fa 3d 46 78 74 3d
       -0.08364839 0.12168216 0.12226629 0.059685014
000020 6c c3 90 bd 8f 28 27 3d 9b 7d d1 3d d5 8d de bd
       -0.07068524 0.040810164 0.102290355 -0.10866896
000030 1d e1 35 3d f7 f1 36 bb e1 a3 4e bd eb ae 3f bd
       0.044404138 -0.0027915218 -0.050449256 -0.046797674
000040 08 27 0b 3e d6 1a 0e 3d ab 80 fe 3d fb bc e3 3d
       0.13589108 0.03469356 0.12426885 0.111200295
000050 df aa d1 3c 40 e7 cf bc fb 50 e4 bd 62 94 5f bd
       0.025594173 -0.025378823 -0.11148258 -0.05458487
000060 38 a0 5d 3d 88 00 b5 bd d5 a0 11 be a2 07 04 3e
       0.054107875 -0.08837992 -0.14221509 0.12893537
000070 35 a9 ab bb b2 c0 b4 bc 37 c4 1c 3d 02 29 92 3d
       -0.005238677 -0.02206454 0.038273063 0.07136728
000080 b5 61 c5 3b 10 f8 9c 3d 8d af e8 3d ff c3 bb 3d
       0.0060236105 0.07664502 0.11361609 0.09168243
000090 6c d6 d2 bd 46 27 c1 3d 33 76 dc 3a ae 7b 0a bd
       -0.10294804 0.09431319 0.0016819894 -0.033809356
0000a0 b0 ae 68 3d a4 e5 e3 3d 72 54 e9 bd 1d 81 be bd
       0.05680722 0.11127785 -0.1139306 -0.0930197
0000b0 7d 02 0e 3e 71 9a 1c be 19 ca f7 3d e9 54 81 bd
       0.13868137 -0.1529329 0.12099094 -0.063150235
0000c0 c3 bf 33 bd 6c 42 43 3d 04 74 f8 3d f8 ba c0 3b
       -0.04388405 0.047670767 0.12131503 0.0058816634
0000d0 0a d5 1a 3d 35 fa d7 3c 0c 20 62 bd 23 ce c5 3a
       0.037800826 0.026364425 -0.055206344 0.0015091341
0000e0 3f 3c d0 3d 92 ab 1b bd d2 8d ea bc 6f 01 02 be
       0.10167741 -0.03800542 -0.028632078 -0.1269586
0000f0 56 8d 00 3c c9 a2 b2 bd 73 aa 8c bc 4f 11 8a bc
       0.007846197 -0.08722455 -0.01717112 -0.016853957
000100 f8 14 11 be f3 8f 7e 3d 3a bf 00 3e 83 8f 9e bd
       -0.14168155 0.062149 0.12572947 -0.077422164
000110 92 53 ab 3d ca 87 ad bd f4 21 f2 3c 45 38 6c bc
       0.08365549 -0.08473165 0.029557206 -0.014417713
000120 bc 29 6d bd 54 03 05 be 05 b0 13 3d e2 1f dd 3d
       -0.05790113 -0.12989551 0.036056537 0.10797097
000130 f5 ea ef bd 97 a5 45 bc 79 78 99 bd ac f9 07 be
       -0.11714736 -0.0120634055 -0.074936815 -0.13278836
000140 79 13 51 3d 69 7f 84 3d b8 35 82 bd fb c2 0b 3e
       0.05104396 0.06469614 -0.06357902 0.13648598
000150 47 b4 8f 3c b0 62 2b bd b7 a8 a0 3d 26 72 15 be
       0.017542018 -0.041842163 0.0784468 -0.14594325
000160 a3 d8 04 bd 6b a7 ca 3d d8 1a 9d ba 10 61 cc 3d
       -0.032433163 0.09895214 -0.001198615 0.09979451
000170 c4 4d d1 bd c1 72 82 3c 9d fd 9c 3d 84 a0 87 bc
       -0.10219911 0.01592386 0.076655604 -0.016556032
000180 84 52 40 3d ac 0c f6 3d aa 54 ec 3c c9 36 f9 bd
       0.046953693 0.12014136 0.028848965 -0.121686526
000190 45 67 c6 3d 0e e8 ac 3d 07 d3 eb 3d 79 9e 57 3d
       0.09687666 0.084426984 0.1151486 0.052641366
0001a0 cc 57 26 3d e1 f5 61 3d b1 dc dc bd 18 d2 c5 bd
       0.040611073 0.05516613 -0.10784281 -0.09659213
0001b0 81 15 d9 3c 5a ca cd 3d e0 f5 fa bd 11 aa 1a 3d
       0.026499512 0.10048361 -0.12253928 0.037759844
0001c0 d5 91 9a 3b d9 cb 17 3d 22 f3 db 3d 79 bd 94 3d
       0.0047170916 0.03705964 0.10739733 0.072627015
0001d0 2b c6 cf bd 54 ed 44 bd 88 e7 52 bd b2 c3 03 bc
       -0.101452194 -0.048077896 -0.051490337 -0.008042263
0001e0 04 68 ee 3d 08 ee ab bd fe fa 58 3d cb 10 3f 3d
       0.11640933 -0.0839501 0.05297374 0.046646874
0001f0 7e 8e 22 bc 6a 3b c7 3d bf 09 bb bc 87 25 a9 3c
       -0.009921668 0.09728129 -0.022831796 0.020647777
000200 e6 be 0d 3e 4b 41 0c 3d dd 59 bf bd 22 84 99 3d
       0.13842353 0.034241956 -0.09343312 0.074959055
000210 da 77 09 be 8d 9e 41 3d ba 7f 1f bd cf e2 b3 bd
       -0.13424626 0.047270346 -0.03894017 -0.08783495
000220 4e c5 8d 3b 0a 0d e5 bd 12 18 05 3e 5a 68 cd 3c
       0.004326499 -0.11184128 0.12997463 0.025074173
000230 ed 4e cc 3d 7f 02 32 3d 5f 29 01 be f8 57 cc bd
       0.099759914 0.04345941 -0.12613438 -0.09977716
000240 6b a0 d5 bd 76 df fb bd b5 f3 4e 3c a8 3d a0 3d
       -0.10430988 -0.12298481 0.0126313465 0.0782426
000250 ad 26 f5 bc 61 4d c9 3d c3 4c 14 be d3 b1 ab bc
       -0.029925669 0.09829212 -0.14482407 -0.020958817
000260 50 5b ae 3d 53 87 05 be 4e 7b 4f 3d 6a ee 06 be
       0.0851351 -0.13039903 0.050654702 -0.13176885
000270 de 3e d8 3c 24 44 19 bd 0f 9a 01 be 76 a6 b3 3d
       0.026397165 -0.0374185 -0.12656425 0.08771984
000280 0f b5 c1 3c 0e 11 f9 3d c8 79 da bd c0 10 bb bd
       0.023645906 0.12161456 -0.10667759 -0.09134054
000290 63 0f 4c 3d d4 4d 00 be 4b 3a 22 3d d1 a6 ee bb
       0.04981936 -0.12529689 0.039606374 -0.0072830697
0002a0 5e c1 0d 3e 96 a0 9f bd 39 61 5c bd c7 ac d7 bd
       0.13843295 -0.07794301 -0.053803656 -0.105310015
0002b0 ea 3b a8 3d 54 2e 4d 3b 67 ae 45 3d b7 e0 fb bd
       0.08214553 0.0031308131 0.048262026 -0.1229872
0002c0 33 bd 14 3d 32 1a 16 bd ab 3f fe 3d 5a 06 d0 bd
       0.036313247 -0.036646076 0.124144875 -0.101574615
0002d0 93 bb 08 3b a9 93 fb 3c 65 59 df 3d ca 9f 34 bd
       0.0020863756 0.030710058 0.109057225 -0.0440977
0002e0 d7 7e 1c bd a4 ae d9 bd 30 ed db bb ae 5f c7 bd
       -0.0382069 -0.10629013 -0.0067116246 -0.09735046
0002f0 13 21 eb bd 5b db 3a bd c3 95 c1 bd c8 8c 01 be
       -0.11480918 -0.04561935 -0.09452393 -0.1265136
000300 36 a1 80 bd 85 d3 2a bc 66 1b 69 bd b9 3f d7 3d
       -0.062807485 -0.010426407 -0.056910895 0.10510201
000310 52 9c d9 3d ca 21 90 3d 2a 69 54 3d 44 af 7e 3d
       0.10625519 0.07037695 0.051858105 0.062178865
000320 ea ea c5 3d 26 f9 ab bd 11 21 45 3d 7f a4 04 3e
       0.09663947 -0.08397131 0.048127238 0.12953375
000330 48 a4 25 3c 66 11 3d 3d b1 37 ce 3c fb 3f d3 3c
       0.0101099685 0.04615917 0.02517304 0.025787344
000340 25 c6 7c 3d 1e c9 62 bc 8a 17 ff 3b a3 f3 00 be
       0.061712403 -0.013841895 0.0077847885 -0.1259294
000350 cb 0a c9 bd 02 a2 c9 3d 5a dd 0f 3e 74 3e 90 3d
       -0.09816512 0.09845354 0.14049283 0.07043162
000360 d0 da 8c bd d1 06 92 bd fc 56 b9 bd 21 19 11 be
       -0.06877673 -0.071302064 -0.09049794 -0.14169742
000370 44 97 bd 3d ea f9 df bd fd 38 a7 bd 02 44 e5 bd
       0.09257367 -0.10936339 -0.081651665 -0.11194612
000380 f3 ee 11 bd 32 47 3e bc 7d 89 05 3c b8 b0 da 3c
       -0.03562827 -0.011613654 0.008150456 0.026695594
000390 22 a3 a0 bd 4e f9 f7 bd e2 e3 37 3d 95 0b 7f 3b
       -0.07843615 -0.12108098 0.04489506 0.0038916816
0003a0 b0 ed 9f bd 8d f3 e2 3d a7 fb 04 be c0 3c b0 bc
       -0.07809007 0.1108161 -0.12986623 -0.021513343
0003b0 79 ab 17 bd 44 57 ff 3d 27 74 b9 bc 06 60 82 3b
       -0.037028763 0.124678165 -0.022638394 0.003978732
0003c0 1c 3b 55 bd 88 71 80 bd 6b 66 30 bd 89 03 01 bc
       -0.052058324 -0.06271654 -0.043066423 -0.007874378
0003d0 a1 61 4b 3a 33 73 e4 bd b1 18 d5 bd 81 f3 99 bd
       0.0007758383 -0.11154785 -0.104051 -0.07517148
0003e0 04 37 08 3e 49 99 0a be a0 4e ea bd 0b 85 13 be
       0.13302237 -0.13535036 -0.11440778 -0.1440622
0003f0 d2 a4 97 bd c8 d8 0d be e8 60 77 3c 6f f4 07 be
       -0.07404484 -0.13852227 0.015098788 -0.13276838

fc2.weight f4 [200, 400]
000000 c7 17 d1 3c 2b 3e a1 3c e1 56 df bc f1 ed 4d bd
       0.025524033 0.019682964 -0.027263107 -0.050275747
000010 ae 4f c0 3a 6d 88 60 bc 1c ca b2 3d 42 92 72 3c
       0.0014672184 -0.013704401 0.087299556 0.014805378
000020 92 8d 55 3c c4 5c c2 bc 38 cb 0f 3b fb 92 c4 3c
       0.013034241 -0.023725875 0.0021941196 0.023995867
000030 7b d5 7a b9 29 f8 2f bd d1 a7 f2 bc 58 30 7e bc
       -0.00023921386 -0.042961273 -0.029621037 -0.015514456
000040 2b 8d 16 3d cd 40 68 bc 19 9c e1 3c 61 71 ed 3c
       0.036755722 -0.014175606 0.027540253 0.028984727
000050 03 9e 83 bc f9 f7 48 bd 77 d7 8a bc 16 34 10 bd
       -0.016066557 -0.04906461 -0.016948445 -0.035205923
000060 fd 8f 19 3b 09 3d a0 3b 02 1a 21 bc 09 9d 65 bb
       0.002343177 0.0048900885 -0.009832861 -0.0035036227
000070 83 87 1d bd b3 49 8d 3d 62 c3 0b 3c 36 17 14 bd
       -0.038459312 0.06898823 0.00853047 -0.03615495
000080 83 d1 b2 3c 1f bc 17 3b 61 0b 63 bd 82 7b 28 bd
       0.021828419 0.00231529 -0.055430774 -0.04113341
000090 68 fc 32 3d 63 68 5f bc 85 fa 09 bd b0 53 cf bc
       0.043697745 -0.013635728 -0.03368618 -0.02530846
0000a0 68 86 1b 3d fa 94 43 bb c7 2d 55 bd 2d 22 2f bd
       0.037969977 -0.0029843436 -0.05204561 -0.042757202
0000b0 54 05 d8 bc b0 a6 1e bd b4 e8 34 bd 24 fb c2 ba
       -0.026369728 -0.038733184 -0.044167235 -0.0014875871
0000c0 e8 b6 68 bc da 39 2b bd 6c 9c b1 bc 0b 8e 2f bd
       -0.0142037645 -0.04180322 -0.021681033 -0.042860072
0000d0 f8 ee bb 3c bd ad 24 3d ca 9d 94 b8 f1 75 d4 bc
       0.022941098 0.040204752 -7.0865804e-05 -0.025935145
0000e0 bf 4d 2d bd a6 c9 f4 3b 9f 20 5a 3c f5 b2 ef bc
       -0.042310473 0.0074703274 0.013313442 -0.029260138
0000f0 f0 7f 39 3b e6 de d0 3c 5a 29 40 bc 91 f1 42 bd
       0.0028305016 0.025496911 -0.011728609 -0.047593657
000100 ca fb 42 bd 9c c3 c0 bb b0 c5 1d 3d e6 cd 7a bb
       -0.047603406 -0.0058826935 0.038518608 -0.0038269698
000110 fb f4 b8 bc 31 60 00 3b c8 3b bc ba 6c 6e 10 3d
       -0.022577753 0.0019588585 -0.0014361078 0.035261557
000120 30 fc df bb b8 c3 c0 3b d4 bb 31 3d b2 23 6d bd
       -0.006835483 0.0058827065 0.043392017 -0.05789537
000130 05 f5 20 bd cb e2 1c bd cd 11 18 bd e9 1a c3 3c
       -0.03929617 -0.038302224 -0.03712635 0.023816543
000140 55 89 7d bc 78 8b 0c 3d 54 78 32 3d 21 75 54 bd
       -0.015474637 0.034312695 0.043571785 -0.051869515
000150 ff b0 21 bd 16 52 91 3a e3 9b 87 3d 71 1b f7 bb
       -0.039475437 0.0011087086 0.0662153 -0.007541113
000160 68 a3 02 3d bb bf eb 3c 65 27 56 3d 55 2d ae 3c
       0.031894118 0.028777948 0.052283663 0.02126185
000170 16 5e d0 3c b9 d0 f3 3c a3 ff 2e bd c5 b4 d9 3c
       0.025435489 0.029762613 -0.042724263 0.026575455
000180 66 ae 6a bc 8a 13 1a 3d ca f3 42 bd e9 2a b0 3c
       -0.014323806 0.03761629 -0.047595777 0.021504836
000190 c3 91 38 bb 9f 1c c8 bc f4 8b 21 bd a2 a5 21 3b
       -0.0028163053 -0.02442771 -0.03944011 0.0024665375
0001a0 20 b9 cb bc 5b 44 19 3d e3 69 b8 bb 54 51 32 bc
       -0.024868548 0.037418704 -0.005627857 -0.010883648
0001b0 22 9c e8 39 51 8c a4 3c 33 d2 68 3c 2a 0d 9a 3c
       0.00044366816 0.02008644 0.014210272 0.018805105
0001c0 00 80 6d bd 18 ed 21 bd 8e b7 e6 3c 69 6b 22 bd
       -0.0579834 -0.03953275 0.028163698 -0.039653216
0001d0 dd 69 45 3c 00 e0 b1 b9 a3 ed 20 bd c0 66 e4 3c
       0.012049166 -0.00033926964 -0.039289128 0.027881026
0001e0 b9 b8 04 3d 41 64 a8 bc fa 8d 8d 3d 58 5e 36 bd
       0.032402728 -0.020555617 0.069118455 -0.044523567
0001f0 38 09 3c bd 07 aa 97 bc 88 35 93 3d 9b c5 27 3c
       -0.04590723 -0.018513693 0.07187945 0.010239984
000200 73 59 75 3c ec 51 6a bc 94 72 17 bd a9 37 e4 bb
       0.01497494 -0.014301758 -0.036974505 -0.006964643
000210 36 b7 15 bc 04 1f fa bc 78 d6 26 3d 37 ed 4e 3d
       -0.009137919 -0.030532368 0.040731877 0.050519194
000220 77 6e 23 bc 73 ec fe 3c 56 a5 2b 3d 95 a1 f3 bc
       -0.009975067 0.031118607 0.041905724 -0.029740134
000230 84 79 e3 ba 4a 61 8e bc 1d d3 39 bd d6 06 e4 3b
       -0.001735494 -0.017380375 -0.04536735 0.0069588227
000240 42 3d da bc 80 90 70 3d 6a 1b 2d 3d 3a 36 1a 3d
       -0.026640538 0.058731556 0.042262472 0.03764937
000250 a9 d1 01 3d cf 1c fa bc 86 53 20 bd d5 26 5c bd
       0.031694088 -0.030531315 -0.039142154 -0.05374797
000260 fd 12 ed 3c b2 0f 8d bc ce fc 1c bd e0 74 b1 bc
       0.028939718 -0.017219398 -0.03832703 -0.021662176
000270 a0 93 11 bd 10 d2 79 3d d1 17 48 bc 5e db e5 bc
       -0.035541177 0.060991347 -0.0122127095 -0.028058704
000280 d7 d1 42 bd 21 90 20 3d ed cf 78 3c 93 a7 d1 bc
       -0.0475634 0.039199952 0.015186292 -0.0255926
000290 ed 9c 11 3c c8 22 2c 3d bf 49 b6 bc e8 b3 1f bd
       0.008887512 0.042025357 -0.022251962 -0.03898993
0002a0 0d d3 07 3b 99 f5 b6 3c 04 ed 89 bc 58 6f ab bc
       0.0020725161 0.022333907 -0.01683665 -0.020927116
0002b0 8c d9 cc 3c 3b 61 25 bc e5 7b 9e bc b0 8e 02 bc
       0.025006078 -0.010093982 -0.019346187 -0.00796859
0002c0 b8 94 6c bd e7 7f 2f bd f8 ef 0c 3d 35 bb 01 3d
       -0.057759017 -0.042846587 0.03440854 0.031672675
0002d0 0d 41 37 bb 00 ac 8e 3c 54 c1 94 bc df fd 43 bd
       -0.0027962357 0.017416 -0.018158592 -0.047849532
0002e0 5e 60 71 3c 6d da 38 bb 13 b4 8e bc ad 60 8a bb
       0.014732448 -0.0028206364 -0.01741985 -0.0042229504
0002f0 47 37 8a bb b5 52 7f bd 0a 79 06 bc b7 c2 33 bc
       -0.0042180154 -0.062334735 -0.008207569 -0.010971717
000300 9b 81 d8 bc 4d 73 3d 3d b9 89 52 bd 22 b6 1f 3d
       -0.026428988 0.046252538 -0.051400874 0.038992055
000310 05 1f 10 3c 43 93 76 bc f6 39 e3 bc 00 91 c2 bc
       0.008796458 -0.015049758 -0.027737599 -0.023750782
000320 62 35 d8 bb 5a 11 5f 3c 8e 3d 38 bc e1 bb 41 3d
       -0.0065981606 0.013614977 -0.0112451445 0.047298316
000330 92 b3 a9 bb 7d 05 aa bc cf 0d 06 bc 74 58 50 3d
       -0.005178877 -0.02075457 -0.008182003 0.050865605
000340 dc d7 e6 bc 91 2b 9b 3c 13 f4 15 3b 77 7d 12 3c
       -0.028179102 0.018941673 0.0022881075 0.008941046
000350 ef aa be 3c 86 88 b7 bb 97 52 18 bd cc 46 ee 3a
       0.023274867 -0.0056009917 -0.03718814 0.0018179058
000360 ea 35 85 3b 3b 1c c4 3b 49 af d7 3c e7 34 2b 3c
       0.004065265 0.0059848106 0.0263287 0.010449625
000370 11 11 01 bd a7 5f c6 bc bf c7 a9 bc 5c 21 37 bc
       -0.031510416 -0.024215532 -0.02072513 -0.011177387
000380 95 6e 99 3c 98 56 b3 bc b9 8e 06 3d 23 3b 5f bd
       0.018729487 -0.021891877 0.032850955 -0.054499757
000390 4f 6b c3 bb 15 73 15 3d 0b 6b 3c bd e3 c1 92 bc
       -0.00596372 0.036486704 -0.04600052 -0.017914718
0003a0 02 01 05 bd cf 63 34 3d 2d b7 56 3c 23 e7 2f bd
       -0.032471664 0.044040497 0.013105196 -0.04294504
0003b0 f8 a0 04 bd b2 29 e9 3c be 64 73 3d 30 16 54 bc
       -0.032380074 0.028462265 0.059422247 -0.012944743
0003c0 a7 d3 52 bc 63 62 32 3c 3a fd 53 bd 51 9a 1a bc
       -0.012867845 0.010887715 -0.051755168 -0.009436206
0003d0 0f f8 0c bd ea f7 ad bc c4 0e 6a 3c 27 5e ce bc
       -0.034416255 -0.021236379 0.014285747 -0.02519138
0003e0 9b ba f4 3b 47 0f 4f 3c 0e 06 a4 3c 71 c9 e2 3b
       0.007468534 0.01263792 0.020022418 0.0069209863
0003f0 21 3a 0b 3d 83 8f 2e 3d 99 09 1d bd fa 5a 23 bd
       0.033990983 0.042617332 -0.03833923 -0.039881684

fc2.bias f4 [200]
000000 f0 d4 0c 3d fd 91 1e bc 8f da 82 bb 55 e7 2d bd
       0.03438276 -0.009678361 -0.0039933394 -0.042456944
000010 63 d8 45 3c ac c7 4c 3c 88 a7 cf 3c 48 fe 47 bd
       0.012075516 0.012498777 0.02534844 -0.048826486
000020 20 a6 d1 3c 8d 40 04 3d c7 94 66 3d 3f 4a 15 3c
       0.02559191 0.032288123 0.05629423 0.00911194
000030 7e 15 bf 3c 67 f7 1d 3d 14 ec 1d 3c d7 70 d2 bb
       0.023325678 0.03856602 0.009638805 -0.006422143
000040 ac 4c 2d bd 51 12 66 bc 99 e4 49 bd 0e 12 e9 bc
       -0.042309448 -0.014042453 -0.049290273 -0.028450992
000050 b0 10 19 bd ef b7 e2 3c be 9d 4b 3b 75 b1 ac 3c
       -0.03736943 0.027675597 0.0031069363 0.021080712
000060 00 79 22 bd c8 f6 22 bd 60 f8 5f 3c 55 aa de 3c
       -0.039666176 -0.03978613 0.013670057 0.02718083
000070 12 fe 42 bd 0d ca 25 3d 10 30 68 bd 9f be fc bc
       -0.04760558 0.040475894 -0.05668646 -0.030852614
000080 4c ca 07 3c 8d b9 36 bd a1 bb e0 bc 8b ca 7b bb
       0.008287977 -0.04461055 -0.027433218 -0.0038420286
000090 12 3a ba 3b b4 c8 f3 bc 56 e3 f2 3c 71 bd 99 bc
       0.005683192 -0.029758789 0.029649418 -0.01876709
0000a0 69 3a 56 bc 6c e0 c1 3c ad 18 85 bd 61 78 57 3a
       -0.0130754495 0.023666583 -0.06498847 0.0008219537
0000b0 d2 14 c9 3c 5d bf ed 3c a4 d3 c4 3a d0 92 4d bc
       0.02454606 0.029021913 0.0015016687 -0.01254721
0000c0 aa 0e 30 bd fe 7b 72 3c 3b 2c 26 3d 42 2d 3f bd
       -0.042982735 0.01480007 0.040569525 -0.04667402
0000d0 0b 4d 0b 3c 6e cb 9c b9 68 98 44 bd 17 6f 99 3c
       0.008502255 -0.00029906206 -0.04799691 0.01872973
0000e0 92 2f 13 3d 1c df 07 bd 9e 79 8f bc 58 f9 1c bb
       0.03593404 -0.033171758 -0.017514046 -0.0023952331
0000f0 b0 83 81 bc 3a ea 6e 3a cc c8 af bc 32 55 5b bd
       -0.015809864 0.0009113882 -0.021458052 -0.053548045
000100 3b 94 04 bd 6b 86 95 3c e8 7b 43 bd 45 23 c3 3d
       -0.032367926 0.018252572 -0.047725588 0.095282115
000110 46 87 13 3d 2e f3 fa 3c 61 f5 d6 3b 6f 78 53 bb
       0.03601768 0.030633535 0.006560013 -0.003226783
000120 f2 7e dc 3c 4e 6a 85 3d 67 b3 50 3d 33 62 73 bc
       0.026916001 0.06514417 0.05095234 -0.0148549555
000130 e2 35 aa 3c 1c 10 cc bc 2e d3 d5 bc fa 1f 1b 3c
       0.020777646 -0.024910025 -0.026101675 0.009468073
000140 3d 63 0a 3c 81 03 0d bd 86 87 88 b9 de 00 57 bc
       0.008446512 -0.03442717 -0.00026040914 -0.013122765
000150 61 9e 03 bd d6 7f 43 3d d4 e2 5b bc b0 9f 0a bc
       -0.032133464 0.047729336 -0.013420779 -0.008460924
000160 28 71 69 bd f2 e8 94 bc dd c4 b6 39 71 81 0c 3c
       -0.05699268 -0.018177483 0.0003486042 0.008575783
000170 ed e6 4d bc f5 44 08 3d 1b 56 d8 ba 0b dd 05 3d
       -0.012567264 0.033268888 -0.0016505154 0.032681506
000180 b4 5f 9c bd 63 d3 42 3c 36 7f 99 bd 83 63 ca 3c
       -0.076354414 0.011891219 -0.07494967 0.024705654
000190 0a 0b 72 bc a4 c4 8d bc a5 8a fd 3c 54 d4 3c bb
       -0.01477314 -0.01730568 0.0309499 -0.002881308
0001a0 c7 28 3b bc 21 a4 3a 3d 5f a1 b9 bc a7 8c 40 3c
       -0.011423296 0.04556668 -0.022659956 0.011752284
0001b0 7e bd 24 3d a8 80 97 bd 32 ea ea bc f4 b8 25 bc
       0.040219776 -0.07397586 -0.028676126 -0.010114897
0001c0 00 74 a7 3b 24 48 b6 bc 8c 43 93 bd 72 3e b4 bc
       0.005110264 -0.022251196 -0.07190618 -0.022002432
0001d0 c7 a1 24 3d e4 34 39 3d 88 f1 29 bd 93 a4 9a bc
       0.040193345 0.045216456 -0.041490108 -0.018877303
0001e0 ad 03 9b bc c7 0e 98 ba 14 bd 07 3d c3 26 32 3d
       -0.018922651 -0.0011601084 0.033139303 0.043493997
0001f0 ef 18 b4 3c 3e ea 4e 3c 76 cd 8f 3c cc a7 06 bd
       0.021984546 0.01262909 0.017554026 -0.032874867
000200 2a 2a 52 bc df eb 83 3c 48 5f 8e bd 2c 7f 0a bd
       -0.0128274355 0.016103683 -0.06951767 -0.033812687
000210 d5 57 86 bc 4d fc 3c 3d 16 a7 b5 bc 74 67 53 bc
       -0.016399303 0.04613905 -0.0221744 -0.012903083
000220 ed cb ee bc 2a 05 99 bc 29 71 54 3d 69 66 5f bd
       -0.029149974 -0.01867922 0.05186573 -0.054541025
000230 0c 78 03 bd 8a 3d 2b bd a5 63 1e 3d 96 e4 1b 3d
       -0.032096907 -0.041806735 0.038669247 0.038059793
000240 9e 58 be 3c ee c9 9c bc f1 10 af bc a7 d7 fa b9
       0.023235615 -0.019139256 -0.021370383 -0.0004784439
000250 6a e8 21 3b 1a f1 29 bd 6f a4 56 bd 15 57 30 bd
       0.002470518 -0.041489698 -0.05240291 -0.043051798
000260 21 10 d5 3c 99 13 53 bd b2 44 10 3d af 7c e6 bb
       0.026008667 -0.05153236 0.035221763 -0.0070339064
000270 a3 30 32 bd 59 0e d0 bc bc 4b ff bc c1 4e 27 3d
       -0.043503415 -0.025397466 -0.031164043 0.04084659
000280 62 04 03 3d a2 11 25 bd 74 dc 73 3d 80 52 89 bc
       0.0319866 -0.04030002 0.059536412 -0.016762972
000290 dc 6d e8 3c ef e2 4c bd e9 75 6d 3c 40 4f 33 3d
       0.028372698 -0.05002111 0.014493444 0.04377675
0002a0 04 15 93 bc 2f f3 90 bc c1 a5 a3 bc bb 31 f6 bb
       -0.017954357 -0.017694084 -0.019976499 -0.0075132526
0002b0 21 fa 4c bb 39 8c 80 39 3b 6c 8d bd c1 44 7f 3c
       -0.0031277018 0.00024518537 -0.06905409 0.015580357
0002c0 dd b2 e3 bb 44 e1 f1 bc 1b 3e c0 3b 9d 49 58 bb
       -0.0069488124 -0.02952636 0.0058667785 -0.0033002861
0002d0 fe d9 8d bc fa ff 20 3d c5 79 1a bd 2c 7f bb 3c
       -0.01731586 0.03930662 -0.037713785 0.022887789
0002e0 d9 6d 00 3d 71 14 0d bd 33 b5 1e 3c 04 68 0a 3c
       0.03135476 -0.034443323 0.009686756 0.008447651
0002f0 a6 10 cb bc 66 f6 0a 3d d3 f5 6c 3c 39 78 f7 3b
       -0.024788212 0.03392639 0.014462906 0.0075521735
000300 cc 36 9b 3c dc 74 2b bd ba 19 28 3d 53 70 d6 3c
       0.018947028 -0.041859493 0.04104016 0.026176607
000310 bf 03 19 bd 66 03 24 3d 79 61 6c 3c 8b 12 15 bc
       -0.03735709 0.040042304 0.014427536 -0.009098659

fc3.weight f4 [50, 200]
000000 5a 89 8a 3d 4f cc 77 39 4f f9 5b 3d da f1 9e 3d
       0.06764479 0.00023631866 0.053704556 0.07760973
000010 da 10 c3 3d e8 0f ce 3d 48 63 ef 3d bc ed c3 3c
       0.095246986 0.100616276 0.11688858 0.023917072
000020 98 75 b0 bd cb b2 db bc 22 73 18 3c 89 1f a5 bb
       -0.08616179 -0.026818654 0.009304794 -0.0050391597
000030 9b ca b9 bc 22 48 11 be 31 c8 ce bd 6d 0d 09 3e
       -0.022679618 -0.14187673 -0.10096777 0.13384028
000040 93 64 8e bd e3 7c eb 3d d7 d6 2f bd 13 05 90 bc
       -0.06952777 0.114984296 -0.042929497 -0.017580545
000050 8d 46 f4 bd cf 77 45 bd 16 38 e7 3d a5 47 4f bd
       -0.11927519 -0.04820996 0.112899944 -0.050605435
000060 92 87 bd 3d e4 b3 ce 3c e0 f1 bd 3c ac f3 0b bd
       0.092543736 0.025232263 0.023186624 -0.03416793
000070 f2 95 d3 bc 24 72 4d bd 25 85 92 3d 62 b9 8b 3c
       -0.025828335 -0.05015768 0.071543016 0.01705617
000080 b4 a7 86 3b a4 ec c3 3c ea b6 41 bc 05 3a c4 3d
       0.0041093472 0.02391655 -0.011823395 0.09581379
000090 72 71 39 3d df cc 9e bd 63 41 3f bd d1 c9 89 3d
       0.045274206 -0.0775392 -0.046693217 0.067279465
0000a0 32 53 59 bd 78 f3 df 3d f9 f5 07 3d c0 34 f9 bc
       -0.053057857 0.1093511 0.033193562 -0.030420661
0000b0 f8 d6 d4 bd 8e 42 28 3c d1 cd c6 3d 70 7e a3 bc
       -0.103925645 0.010269774 0.09707225 -0.019957751
0000c0 34 b0 0b 3e 27 9e ef 3c 03 e3 a5 3d 44 a0 1b 3d
       0.13641435 0.029250218 0.0809994 0.037994638
0000d0 df 90 a9 bd 89 a7 35 bc cd 65 6d 3d 03 de a0 3c
       -0.08279585 -0.011087307 0.057958413 0.019637113
0000e0 62 79 4a bc b2 fe 8e 3d 05 76 4a bd 7e b8 27 3b
       -0.0123580415 0.06982173 -0.04942896 0.0025592144
0000f0 e2 f8 7a bd a0 ee dc 3c ef df f1 bd bf 26 c4 3c
       -0.06127251 0.026969254 -0.1181029 0.023944257
000100 27 db f4 3c 15 5b c4 bc ce 09 3e 3d 2f 19 96 3c
       0.029889656 -0.023969213 0.04639607 0.018322555
000110 41 8c 93 3d 75 38 5c 3d 45 48 3f 3d e1 90 db bd
       0.07204486 0.05376478 0.04669978 -0.10720993
000120 3a 5d 03 be df 18 fa 3d a6 ba 40 bd 1f ef 85 3c
       -0.12828532 0.12211775 -0.047053 0.016349373
000130 25 06 b5 3c 88 39 1a bc 96 e3 86 bc 8b 59 a5 bd
       0.022097657 -0.009413131 -0.016465943 -0.080737196
000140 bf 2e 33 bc 7c 09 68 bc 0b 68 9f 3b 3a 04 80 3d
       -0.010936438 -0.0141624175 0.004864698 0.06250806
000150 35 6f 84 3c ba 39 d2 bd 55 bd a3 3d 18 b6 0b 3d
       0.016166309 -0.10264917 0.079950966 0.034109205
000160 4d ec b5 3b 40 07 a5 bc f9 bf d1 bd 51 8d 57 3d
       0.005551851 -0.020145059 -0.10241694 0.052625004
000170 53 75 35 be 1c 64 9d bc 13 70 da bc 53 37 24 bb
       -0.17720537 -0.019212775 -0.02666477 -0.002505739
000180 5b 96 ad 3d 92 b8 f3 3b fe da 4c 3d 99 36 f5 bc
       0.08475944 0.007437774 0.050013535 -0.02993326
000190 83 d9 e0 3d 57 79 f4 3c 20 93 bc bc 56 90 69 bb
       0.10978987 0.029843016 -0.023019373 -0.003563901
0001a0 59 ee 85 3d a1 c3 0a 3d 75 27 93 3d 80 53 04 bd
       0.06539602 0.033877973 0.0718526 -0.032306194
0001b0 9e ca d4 bc f1 29 48 bc ee 11 db bc 4d 70 5b bd
       -0.025975522 -0.012217031 -0.026741948 -0.053573895
0001c0 38 a3 0a bd 9d be 99 bd e1 5d 5e 3c 34 f0 de bd
       -0.033847064 -0.0750706 0.013572187 -0.10885659
0001d0 7a 43 0a be cc c7 4f bd 89 6a 90 bd a9 5f cd 3c
       -0.13502303 -0.05072765 -0.0705157 0.025070028
0001e0 85 b0 6c 3c 54 2f 40 3e 76 00 aa bd 90 f7 fc 3c
       0.014446382 0.18768054 -0.08300869 0.030879766
0001f0 28 e6 8b 3d c6 cb 3b 3d 79 45 5f bd e8 38 97 3d
       0.06831008 0.04584863 -0.054509614 0.07383901
000200 f4 16 b0 bd 15 3f 1b 3d ff d9 b3 bd ec aa 03 bd
       -0.08598128 0.037901957 -0.08781814 -0.032145426
000210 73 a4 c5 3d ed 64 1c bc 8e 08 bf bd 7f 63 22 3e
       0.09650507 -0.009545547 -0.093278036 0.15858267
000220 86 9d 0d bd 96 49 28 3a ab 93 c0 bd 44 90 39 3d
       -0.034574054 0.00064196566 -0.094031654 0.045303598
000230 1e b8 59 3c 73 08 60 3c 1c ef 9b bb 4b ba 75 bd
       0.013288526 0.013673889 -0.0047587287 -0.059992116
000240 70 03 01 be 2d 24 95 bc d1 22 fc bc ca d9 ab bd
       -0.12598968 -0.018205727 -0.03077832 -0.08391149
000250 3b 95 cc 3d 9e f3 49 3a b7 d2 18 3e 58 8f 1c 3d
       0.09989401 0.00077038433 0.14924131 0.03822264
000260 94 f1 70 bd 00 9c 30 bd ae cf 69 3c 1b ce 8a 3d
       -0.058824137 -0.043117523 0.014270706 0.06777593
000270 f1 bb be bc 85 46 ee bd 3a ac 32 3d 78 64 e9 3d
       -0.023282977 -0.11634544 0.04362128 0.11396116
000280 af c0 cb bd 47 74 a0 bd d8 36 23 3d cd 21 30 3b
       -0.09948861 -0.07834678 0.039847225 0.0026875616
000290 0b 8c 0d bc 7d 62 28 3d 3d 90 ac 3c 5c 90 7a bd
       -0.008639346 0.04110955 0.021064872 -0.061172828
0002a0 b1 7d 2c bd 91 b7 58 bd 5e aa c4 bc 59 d9 5d bc
       -0.042112056 -0.052909438 -0.024007019 -0.013540589
0002b0 f3 3a b3 bd d6 04 0a 3d 96 7d d7 3d e0 b6 bb bd
       -0.08751478 0.03369602 0.105220005 -0.0916574
0002c0 b2 d3 07 bd 0a ec 04 3d f5 47 87 bd 49 b4 aa 3d
       -0.033160873 0.032451667 -0.066055216 0.08335168
0002d0 5e ce f2 bd 89 27 74 bd 9c 84 c0 3d e0 1c 8d bd
       -0.11855768 -0.059608016 0.09400293 -0.06890273
0002e0 da 52 05 bd 58 65 8d 3d e6 9d bd 3d a3 e2 73 3d
       -0.032549717 0.069040954 0.09258632 0.05954231
0002f0 17 e3 3d 3d 04 d0 c4 3d 53 71 e3 3d 1b c8 6e 3d
       0.046359148 0.09609988 0.11105599 0.058296304
000300 6e e2 16 bd 76 ca ce 3c d7 6b 25 bd 8f 68 96 3d
       -0.036837034 0.025243025 -0.040386047 0.07344162
000310 4a 2e c9 bb 2b 29 09 3d bc 81 86 bd 60 4c b2 3c
       -0.0061395513 0.033486526 -0.065677136 0.021764934
000320 02 1e 35 bd fc a3 ab 3c 06 da 0f bd 7b e3 5f 3d
       -0.04421807 0.020952217 -0.035120033 0.0546603
000330 43 ce d0 3c db b0 82 bd 34 f5 85 3d 79 7e 86 bd
       0.025488978 -0.06381389 0.065409094 -0.065670915
000340 19 4d 99 bd 98 d6 03 bd 2e 08 2b bd 2c 94 06 bd
       -0.07485408 -0.032187074 -0.041755848 -0.03285615
000350 65 fa 46 bd d2 0d de 3c c5 cd f3 ba 9e 72 c6 bb
       -0.04857864 0.0271062 -0.0018600753 -0.006056144
000360 ba 16 33 bc 83 81 ba 3c a1 89 b1 3b 91 4e 64 bd
       -0.010930711 0.022766834 0.005418018 -0.05573899
000370 62 ca 24 3a 71 85 1d bd 6a 55 8f 3c 75 69 3f bd
       0.0006286261 -0.038457338 0.017496783 -0.04673143
000380 ca e4 45 3d a4 62 fd bc e3 e6 8c 3d a2 a1 49 bc
       0.048313893 -0.030930825 0.06879976 -0.012306603
000390 6e 80 9a bd f8 fc 2e 3d 71 8e 07 bd db 93 ca 3b
       -0.07544027 0.04272172 -0.033094827 0.0061821765
0003a0 a0 23 ac bc 4d 7b 80 3d 26 71 2a bd 8e d2 12 bd
       -0.021013081 0.06273518 -0.041611813 -0.03584533
0003b0 a9 95 0f bc 26 e7 74 bd 2d b0 37 bc 35 70 2d 3d
       -0.008763709 -0.059790753 -0.011211437 0.042343337
0003c0 b8 7c 88 bd fe d6 33 bd 3c d6 06 3d 2d 84 09 bd
       -0.06664413 -0.043906204 0.032919154 -0.03357332
0003d0 dd ba 68 3d a4 3e b1 bb 5a 28 00 3d 94 63 2f 3d
       0.05681883 -0.0054090787 0.031288482 0.042819574
0003e0 00 31 80 3c 16 28 6b 3d fa 39 14 bd 18 9a 2f 3d
       0.015648365 0.057411276 -0.036188103 0.042871565
0003f0 0d 3b 1c bb 26 84 0f 3d 24 59 40 bd 65 67 f0 3b
       -0.0023838908 0.035038136 -0.04696001 0.0073365443

fc3.bias f4 [50]
000000 8c 6d 2d 3c ff 5e 18 bd 32 ba a0 3d bd dd 04 3b
       0.0105852 -0.03719997 0.07848014 0.0020273768
000010 ce 9a a6 bd ec 01 60 3e fb 56 52 bd 7b 91 65 3d
       -0.081349954 0.21875733 -0.051352482 0.056046944
000020 dd 6e 19 bd 7a 3f f4 3d c5 20 b2 3e 9f e2 ad bd
       -0.037459243 0.1192617 0.34790626 -0.0849049
000030 cc 8f 60 3d 50 f4 8e bd 9c 3a ab bc 3d c2 b1 bc
       0.054824635 -0.06980193 -0.02090197 -0.021699065
000040 bd 63 02 3d 91 22 55 3d e6 12 9e bd 27 d9 c7 bb
       0.0318334 0.05203492 -0.07718448 -0.0060988846
000050 00 a5 05 3c 78 c3 87 bd ca 45 c4 bc c7 38 42 3b
       0.008157015 -0.066290796 -0.02395906 0.0029635893
000060 81 94 aa 3c 20 ce 40 bd 51 71 e9 3d f8 22 e7 bd
       0.020822765 -0.047071576 0.113985665 -0.11285967
000070 be a8 43 bd 3c 93 86 bc ce 24 cb 3d 26 19 59 3c
       -0.047768347 -0.016427629 0.09919129 0.013250625
000080 e6 6f 58 3d b9 e8 4f bd 86 ff 4c bc 30 40 e8 3b
       0.05284109 -0.05075905 -0.012512093 0.00708773
000090 4c 2b 81 3b 87 f0 46 bc a6 41 43 3d 02 d6 b2 bc
       0.003941929 -0.012142307 0.04767003 -0.021830563
0000a0 d1 b1 fa 3d 6f 76 7a 3c db ab 99 3a ec 28 30 3d
       0.12240947 0.015287026 0.001172419 0.043007776
0000b0 b9 78 28 3c 6c 29 91 3d 1c 1d a2 3b 15 9c c9 3c
       0.010282689 0.07087979 0.0049473178 0.024610559
0000c0 2f 09 ad bb 23 27 f8 bc
       -0.005280636 -0.0302921

fc4.weight f4 [3, 50]
000000 b3 10 d3 3e 29 1f a5 bd ce eb 83 3e 93 89 ea 3e
       0.41223678 -0.08062584 0.25765842 0.45808086
000010 03 09 6c be 01 bc 9a be 69 0c 28 bf 65 6a de bd
       -0.23050313 -0.3022156 -0.65643936 -0.10860137
000020 98 9d 00 3f 26 30 63 be 00 54 89 bf 7f 02 29 be
       0.5024047 -0.22186336 -1.072876 -0.16504858
000030 77 2f a7 3d 6b 2e 8b be 10 53 29 bc d3 73 15 be
       0.0816335 -0.27183852 -0.010334745 -0.14594965
000040 79 a5 6e be b7 a9 3a 3f 0b 26 8e bd 43 fc 65 3e
       -0.2330531 0.72915214 -0.0694085 0.22459511
000050 7b 95 8d bd f8 6f 15 3e 01 cf 4d 3f 16 a4 99 bf
       -0.06913277 0.14593494 0.8039399 -1.20032
000060 e1 5c 52 3e d6 31 1d 3e d1 ec af 3e 92 70 78 bf
       0.20543243 0.15351042 0.34360364 -0.9704677
000070 f0 c9 c9 3e c1 c6 1f 3d de e8 3e bf 53 da f6 3d
       0.3941188 0.039007906 -0.7457408 0.12053361
000080 19 87 e3 bd 0d 95 51 bd bc 49 9c bd b1 83 34 be
       -0.11109752 -0.051167537 -0.07631251 -0.17628361
000090 62 db 1b 3d 7c 8c 3e 3f 22 ca 4b 3f cb 50 a1 bc
       0.038051017 0.7443311 0.79605305 -0.019691845
0000a0 96 fb e6 3e b8 5e da be 6e dc c1 be 3e 76 23 3e
       0.4511382 -0.4265039 -0.37863487 0.15963075
0000b0 82 ff e1 bd dd 29 02 bc 5f aa 2a 3f c0 5a a1 3d
       -0.110350624 -0.007944551 0.66666216 0.07878637
0000c0 17 c5 2d 3f fa 80 9b 3d 01 f8 08 bf ec 92 da bd
       0.6787886 0.0759296 -0.53503424 -0.106725544
0000d0 04 e0 c6 be 28 48 a9 be b8 9f 1e 3f 80 44 50 bf
       -0.38842785 -0.33062863 0.6196246 -0.8135452
0000e0 d6 6f 66 3f 52 a8 76 3c aa b9 ce 3e 26 6a fd be
       0.900144 0.015054779 0.40376025 -0.49495047
0000f0 2d 02 79 be 08 6a 4c 3e 76 55 7a 3f 97 66 1d 3f
       -0.24317236 0.19962323 0.97786653 0.61484665
000100 4a 01 1c 3c 4f 33 0b be 89 64 fd bd 1f ae 8c bd
       0.009521792 -0.13593791 -0.12372691 -0.068691485
000110 bb 6e 62 bd 38 d2 81 be e1 14 05 be b9 3c 3b be
       -0.055281382 -0.25355697 -0.12996246 -0.18284883
000120 27 fe 59 bf 76 55 b1 3f 56 2a ce be 1c f7 9b 3c
       -0.8515343 1.3854206 -0.40266675 0.01903873
000130 0c 3f eb be 37 ae ad 3f ec 43 51 be 01 ab 1e 3f
       -0.45946538 1.3568791 -0.20436066 0.6197968
000140 a5 92 24 3f 6d c2 2f be 74 c7 0d 3e 84 b0 a5 bd
       0.6428626 -0.17164011 0.13845617 -0.08090308
000150 6c 08 5a 3e 39 0f df 3e 49 59 fd bd 77 f9 3f bf
       0.21292275 0.435663 -0.123705454 -0.7499003
000160 f6 f3 0f bf 24 dd 33 3e de 2a b8 3e 1f 18 a9 be
       -0.5623163 0.17564827 0.35970205 -0.33026215
000170 15 ea 4e 3f b1 15 96 bd e5 ca ad 3e 1e 81 25 be
       0.8082593 -0.07328356 0.3394386 -0.16162536
000180 1a b4 c2 be be 2d d8 3e a6 b3 a3 be 21 33 80 3d
       -0.38028032 0.422224 -0.31972998 0.06259752
000190 9a 2c 32 3d 52 b1 b3 bc 67 36 9e 3d b7 ae 6b be
       0.043499567 -0.021935139 0.0772522 -0.23015867
0001a0 35 83 92 be e8 c8 98 3f c5 c0 a2 bd 10 fe ee bd
       -0.28615728 1.1936312 -0.07946924 -0.11669552
0001b0 e3 a8 30 bf 4e 96 2d 3f 6d 30 ae 3f 82 a0 26 be
       -0.690077 0.6780747 1.3608528 -0.16272166
0001c0 ad dc 89 bf a4 79 ac be 5b bd 1a bb 51 6d 83 3d
       -1.077047 -0.33686554 -0.00236114 0.06417335
0001d0 72 f8 87 3e b6 fd 31 bf b4 68 c4 3b 83 be 69 3c
       0.26556736 -0.6952776 0.005993927 0.014266613
0001e0 13 00 ce bd ea ef c0 bd cc 75 54 3d 3f 17 b9 be
       -0.10058608 -0.0942076 0.051870152 -0.36150548
0001f0 66 7e 32 3d 6a 76 0d 3c 50 43 5c 3e 8a 13 01 bf
       0.043577574 0.008634189 0.21510053 -0.5042044
000200 98 c6 1e be 7e c0 17 bf 65 39 af 3e ac 9a 9c bc
       -0.15505445 -0.59278095 0.34223476 -0.019116722
000210 1e 3f b0 3d 94 7c 74 bd e9 33 02 be 08 b2 8f bd
       0.08605789 -0.05968912 -0.12715115 -0.07016379
000220 35 9c 1a bd 1d 27 d5 3d 5a 7d 4b be a3 73 19 be
       -0.037746627 0.10407851 -0.19872037 -0.14985518
000230 33 fe 2a bf 01 37 23 3f 7d f9 b2 be cb e2 c8 bc
       -0.6679413 0.63755804 -0.3495597 -0.024522206
000240 e6 a7 15 be 7b 26 44 bd 2d fe 99 be d4 ae c2 be
       -0.1461483 -0.04788826 -0.30076733 -0.38024008
000250 66 7e bb be c5 f1 12 3d
       -0.36619872 0.0358751

fc4.bias f4 [3]
000000 45 9a c7 3b 02 84 4b be 81 d9 86 3e
       0.0060913884 -0.19874576 0.26337817
